…
n":"Output hidden; open in https://colab.research.google.com to view."},"metadata":{}}]},{"cell_type":"code","source":["\n","print(model)"],"metadata":{"id":"Ep_rmqScehIZ","executionInfo":{"status":"ok","timestamp":1771335781681,"user_tz":-180,"elapsed":22,"user":{"displayName":"Ilya Bassin","userId":"04510182124301358001"}},"outputId":"742bb980-9cd6-4973-88c8-7c01ae6c8e2b","colab":{"base_uri":"https://localhost:8080/"}},"execution_count":11,"outputs":[{"output_type":"stream","name":"stdout","text":["{'model': SwinTransformer(\n","  (features): Sequential(\n","    (0): Sequential(\n","      (0): Conv2d(3, 96, kernel_size=(4, 4), stride=(4, 4))\n","      (1): Permute()\n","      (2): LayerNorm((96,), eps=1e-05, elementwise_affine=True)\n","    )\n","    (1): Sequential(\n","      (0): SwinTransformerBlock(\n","        (norm1): LayerNorm((96,), eps=1e-05, elementwise_affine=True)\n","        (attn): ShiftedWindowAttention(\n","          (qkv): Linear(in_features=96, out_features=288, bias=True)\n","          (proj): Linear(in_features=96, out_features=96, bias=True)\n","        )\n","        (stochastic_depth): StochasticDepth(p=0.0, mode=row)\n","        (norm2): LayerNorm((96,), eps=1e-05, elementwise_affine=True)\n","        (mlp): MLP(\n","          (0): Linear(in_features=96, out_features=384, bias=True)\n","          (1): GELU(approximate='none')\n","          (2): Dropout(p=0.0, inplace=False)\n","          (3): Linear(in_features=384, out_features=96, bias=True)\n","          (4): Dropout(p=0.0, inplace=False)\n","        )\n","      )\n","      (1): SwinTransformerBlock(\n","        (norm1): LayerNorm((96,), eps=1e-05, elementwise_affine=True)\n","        (attn): ShiftedWindowAttention(\n","          (qkv): Linear(in_features=96, out_features=288, bias=True)\n","          (proj): Linear(in_features=96, out_features=96, bias=True)\n","        )\n","        (stochastic_depth): StochasticDepth(p=0.018181818181818184, mode=row)\n","        (norm2): LayerNorm((96,), eps=1e-05, elementwise_affine=True)\n","        (mlp): MLP(\n","          (0): Linear(in_features=96, out_features=384, bias=True)\n","          (1): GELU(approximate='none')\n","          (2): Dropout(p=0.0, inplace=False)\n","          (3): Linear(in_features=384, out_features=96, bias=True)\n","          (4): Dropout(p=0.0, inplace=False)\n","        )\n","      )\n","    )\n","    (2): PatchMerging(\n","      (reduction): Linear(in_features=384, out_features=192, bias=False)\n","      (norm): LayerNorm((384,), eps=1e-05, elementwise_affine=True)\n","    )\n","    (3): Sequential(\n","      (0): SwinTransformerBlock(\n","        (norm1): LayerNorm((192,), eps=1e-05, elementwise_affine=True)\n","        (attn): ShiftedWindowAttention(\n","          (qkv): Linear(in_features=192, out_features=576, bias=True)\n","          (proj): Linear(in_features=192, out_features=192, bias=True)\n","        )\n","        (stochastic_depth): StochasticDepth(p=0.03636363636363637, mode=row)\n","        (norm2): LayerNorm((192,), eps=1e-05, elementwise_affine=True)\n","        (mlp): MLP(\n","          (0): Linear(in_features=192, out_features=768, bias=True)\n","          (1): GELU(approximate='none')\n","          (2): Dropout(p=0.0, inplace=False)\n","          (3): Linear(in_features=768, out_features=192, bias=True)\n","          (4): Dropout(p=0.0, inplace=False)\n","        )\n","      )\n","      (1): SwinTransformerBlock(\n","        (norm1): LayerNorm((192,), eps=1e-05, elementwise_affine=True)\n","        (attn): ShiftedWindowAttention(\n","          (qkv): Linear(in_features=192, out_features=576, bias=True)\n","          (proj): Linear(in_features=192, out_features=192, bias=True)\n","        )\n","        (stochastic_depth): StochasticDepth(p=0.05454545454545456, mode=row)\n","        (norm2): LayerNorm((192,), eps=1e-05, elementwise_affine=True)\n","        (mlp): MLP(\n","          (0): Linear(in_features=192, out_features=768, bias=True)\n","          (1): GELU(approximate='none')\n","          (2): Dropout(p=0.0, inplace=False)\n","          (3): Linear(in_features=768, out_features=192, bias=True)\n","          (4): Dropout(p=0.0, inplace=False)\n","        )\n","      )\n","    )\n","    (4): PatchMerging(\n","      (reduction): Linear(in_features=768, out_features=384, bias=False)\n","      (norm): LayerNorm((768,), eps=1e-05, elementwise_affine=True)\n","    )\n","    (5): Sequential(\n","      (0): SwinTransformerBlock(\n","        (norm1): LayerNorm((384,), eps=1e-05, elementwise_affine=True)\n","        (attn): ShiftedWindowAttention(\n","          (qkv): Linear(in_features=384, out_features=1152, bias=True)\n","          (proj): Linear(in_features=384, out_features=384, bias=True)\n","        )\n","        (stochastic_depth): StochasticDepth(p=0.07272727272727274, mode=row)\n","        (norm2): LayerNorm((384,), eps=1e-05, elementwise_affine=True)\n","        (mlp): MLP(\n","          (0): Linear(in_features=384, out_features=1536, bias=True)\n","          (1): GELU(approximate='none')\n","          (2): Dropout(p=0.0, inplace=False)\n","          (3): Linear(in_features=1536, out_features=384, bias=True)\n","          (4): Dropout(p=0.0, inplace=False)\n","        )\n","      )\n","      (1): SwinTransformerBlock(\n","        (norm1): LayerNorm((384,), eps=1e-05, elementwise_affine=True)\n","        (attn): ShiftedWindowAttention(\n","          (qkv): Linear(in_features=384, out_features=1152, bias=True)\n","          (proj): Linear(in_features=384, out_features=384, bias=True)\n","        )\n","        (stochastic_depth): StochasticDepth(p=0.09090909090909091, mode=row)\n","        (norm2): LayerNorm((384,), eps=1e-05, elementwise_affine=True)\n","        (mlp): MLP(\n","          (0): Linear(in_features=384, out_features=1536, bias=True)\n","          (1): GELU(approximate='none')\n","          (2): Dropout(p=0.0, inplace=False)\n","          (3): Linear(in_features=1536, out_features=384, bias=True)\n","          (4): Dropout(p=0.0, inplace=False)\n","        )\n","      )\n","      (2): SwinTransformerBlock(\n","        (norm1): LayerNorm((384,), eps=1e-05, elementwise_affine=True)\n","        (attn): ShiftedWindowAttention(\n","          (qkv): Linear(in_features=384, out_features=1152, bias=True)\n","          (proj): Linear(in_features=384, out_features=384, bias=True)\n","        )\n","        (stochastic_depth): StochasticDepth(p=0.10909090909090911, mode=row)\n","        (norm2): LayerNorm((384,), eps=1e-05, elementwise_affine=True)\n","        (mlp): MLP(\n","          (0): Linear(in_features=384, out_features=1536, bias=True)\n","          (1): GELU(approximate='none')\n","          (2): Dropout(p=0.0, inplace=False)\n","          (3): Linear(in_features=1536, out_features=384, bias=True)\n","          (4): Dropout(p=0.0, inplace=False)\n","        )\n","      )\n","      (3): SwinTransformerBlock(\n","        (norm1): LayerNorm((384,), eps=1e-05, elementwise_affine=True)\n","        (attn): ShiftedWindowAttention(\n","          (qkv): Linear(in_features=384, out_features=1152, bias=True)\n","          (proj): Linear(in_features=384, out_features=384, bias=True)\n","        )\n","        (stochastic_depth): StochasticDepth(p=0.1272727272727273, mode=row)\n","        (norm2): LayerNorm((384,), eps=1e-05, elementwise_affine=True)\n","        (mlp): MLP(\n","          (0): Linear(in_features=384, out_features=1536, bias=True)\n","          (1): GELU(approximate='none')\n","          (2): Dropout(p=0.0, inplace=False)\n","          (3): Linear(in_features=1536, out_features=384, bias=True)\n","          (4): Dropout(p=0.0, inplace=False)\n","        )\n","      )\n","      (4): SwinTransformerBlock(\n","        (norm1): LayerNorm((384,), eps=1e-05, elementwise_affine=True)\n","        (attn): ShiftedWindowAttention(\n","          (qkv): Linear(in_features=384, out_features=1152, bias=True)\n","          (proj): Linear(in_features=384, out_features=384, bias=True)\n","        )\n","        (stochastic_depth): StochasticDepth(p=0.14545454545454548, mode=row)\n","        (norm2): LayerNorm((384,), eps=1e-05, elementwise_affine=True)\n","        (mlp): MLP(\n","          (0): Linear(in_features=384, out_features=1536, bias=True)\n","          (1): GELU(approximate='none')\n","          (2): Dropout(p=0.0, inplace=False)\n","          (3): Linear(in_features=1536, out_features=384, bias=True)\n","          (4): Dropout(p=0.0, inplace=False)\n","        )\n","      )\n","      (5): SwinTransformerBlock(\n","        (norm1): LayerNorm((384,), eps=1e-05, elementwise_affine=True)\n","        (attn): ShiftedWindowAttention(\n","          (qkv): Linear(in_features=384, out_features=1152, bias=True)\n","          (proj): Linear(in_features=384, out_features=384, bias=True)\n","        )\n","        (stochastic_depth): StochasticDepth(p=0.16363636363636364, mode=row)\n","        (norm2): LayerNorm((384,), eps=1e-05, elementwise_affine=True)\n","        (mlp): MLP(\n","          (0): Linear(in_features=384, out_features=1536, bias=True)\n","          (1): GELU(approximate='none')\n","          (2): Dropout(p=0.0, inplace=False)\n","          (3): Linear(in_features=1536, out_features=384, bias=True)\n","          (4): Dropout(p=0.0, inplace=False)\n","        )\n","      )\n","    )\n","    (6): PatchMerging(\n","      (reduction): Linear(in_features=1536, out_features=768, bias=False)\n","      (norm): LayerNorm((1536,), eps=1e-05, elementwise_affine=True)\n","    )\n","    (7): Sequential(\n","      (0): SwinTransformerBlock(\n","        (norm1): LayerNorm((768,), eps=1e-05, elementwise_affine=True)\n","        (attn): ShiftedWindowAttention(\n","          (qkv): Linear(in_features=768, out_features=2304, bias=True)\n","          (proj): Linear(in_features=768, out_features=768, bias=True)\n","        )\n","        (stochastic_depth): StochasticDepth(p=0.18181818181818182, mode=row)\n","        (norm2): LayerNorm((768,), eps=1e-05, elementwise_affine=True)\n","        (mlp): MLP(\n","          (0): Linear(in_features=768, out_features=3072, bias=True)\n","          (1): GELU(approximate='none')\n","          (2): Dropout(p=0.0, inplace=False)\n","          (3): Linear(in_features=3072, out_features=768, bias=True)\n","          (4): Dropout(p=0.0, inplace=False)\n","        )\n","      )\n","      (1): SwinTransformerBlock(\n","        (norm1): LayerNorm((768,), eps=1e-05, elementwise_affine=True)\n","        (attn): ShiftedWindowAttention(\n","          (qkv): Linear(in_features=768, out_features=2304, bias=True)\n","          (proj): Linear(in_features=768, out_features=768, bias=True)\n","        )\n","        (stochastic_depth): StochasticDepth(p=0.2, mode=row)\n","        (norm2): LayerNorm((768,), eps=1e-05, elementwise_affine=True)\n","        (mlp): MLP(\n","          (0): Linear(in_features=768, out_features=3072, bias=True)\n","          (1): GELU(approximate='none')\n","          (2): Dropout(p=0.0, inplace=False)\n","          (3): Linear(in_features=3072, out_features=768, bias=True)\n","          (4): Dropout(p=0.0, inplace=False)\n","        )\n","      )\n","    )\n","  )\n","  (norm): LayerNorm((768,), eps=1e-05, elementwise_affine=True)\n","  (permute): Permute()\n","  (avgpool): AdaptiveAvgPool2d(output_size=1)\n","  (flatten): Flatten(start_dim=1, end_dim=-1)\n","  (head): Linear(in_features=768, out_features=1000, bias=True)\n","), 'weights': Swin_T_Weights.IMAGENET1K_V1, 'preprocess': ImageClassification(\n","    crop_size=[224]\n","    resize_size=[232]\n","    mean=[0.485, 0.456, 0.406]\n","    std=[0.229, 0.224, 0.225]\n","    interpolation=InterpolationMode.BICUBIC\n","), 'output_layer': 'head', 'in_features': <function <lambda> at 0x7f02eb32a7a0>}\n"]}]},{"cell_type
…
